model.pkl (torch, 23127 bytes, 7 tensors)

weight f4 [64, 7]
000000 7b 90 ae be 76 a9 7a 3e 26 47 a0 be a8 30 a1 3d
       -0.34094605 0.24478707 -0.31304282 0.078706086
000010 67 48 a8 3e 76 85 80 be a1 3c a0 3e 6b 17 bf 3e
       0.3286774 -0.25101823 0.31296256 0.37322554
000020 0b db a0 3e db 55 49 be 2a d8 14 3e 1a f2 59 3e
       0.31417117 -0.19661658 0.14535585 0.2128376
000030 9e 50 a8 be 13 81 46 be 6b 89 9e be 5b 17 bd 3e
       -0.32874006 -0.19385175 -0.30964217 0.3693188
000040 de fb 11 3e ae e5 53 3e d6 e9 1f 3e d0 7f de bd
       0.14256236 0.20693085 0.15616545 -0.10864222
000050 0e c5 16 3e 68 a8 16 bd d5 08 94 3e 03 75 a7 3e
       0.14723608 -0.0367817 0.28912988 0.3270646
000060 30 c3 bd 3d 6c 08 62 be 92 25 0f 3e ab d5 53 be
       0.09265745 -0.22073525 0.13979176 -0.20686977
000070 89 d1 4c be b8 6d 9d bd 00 e8 92 3d 67 ff 8a 3e
       -0.20001806 -0.07686943 0.07173157 0.27147982
000080 f6 5c bb be 40 39 05 bc ae 27 5a 3e ea 74 5b 3e
       -0.3659436 -0.008131325 0.21304199 0.21431318
000090 47 fe 99 be ea 89 60 3e 7d 72 93 3e f0 db 2d be
       -0.3007681 0.2192761 0.28798285 -0.16978431
0000a0 24 7f a8 3d cc e4 96 bd 00 5c 3f ba 8d 8b 9a 3e
       0.08227375 -0.07367858 -0.0007299781 0.30184594
0000b0 08 a3 85 3d 80 55 aa 3d c1 93 a4 3e 74 f6 d9 3d
       0.06525236 0.08317089 0.32143977 0.1064271
0000c0 e4 72 92 bd 4b 0a 80 3e 9c 6f b3 be 14 00 a3 bd
       -0.0715082 0.25007853 -0.3504609 -0.07958999
0000d0 d8 12 7f 3d a4 61 e5 bd 10 0a 01 be 49 39 ae be
       0.06227383 -0.11200264 -0.12601495 -0.3402808
0000e0 53 46 3c be a7 55 94 be 87 0d 76 be 8e 54 98 be
       -0.18386202 -0.28971598 -0.24028598 -0.2975201
0000f0 45 33 8d be 10 5f c6 bd 58 fe 2b 3d bd ed 1c be
       -0.27578178 -0.096861005 0.041990608 -0.15325065
000100 e1 64 b8 3e 50 0d 6b bd ed 11 16 be 9d 70 9a 3e
       0.36014464 -0.057385743 -0.14655276 0.30164042
000110 08 64 ae bd 6b 4f 44 be a6 91 7f be f8 c1 91 3d
       -0.08515173 -0.1917092 -0.24957904 0.07117075
000120 e6 bb 0d 3e 17 44 98 be 04 09 98 be 02 a9 16 be
       0.13841209 -0.29739448 -0.29694378 -0.14712909
000130 d0 9e 9c be 7e a9 50 3e f2 93 a8 be 07 64 11 be
       -0.30589914 0.20377156 -0.32925373 -0.14198314
000140 cc fb 88 bd 80 b1 7a bb 74 4c bc bd 07 0f 64 be
       -0.066886514 -0.003825277 -0.0919427 -0.22271357
000150 ae ca 9d be e6 2a 7c 3e 40 00 56 bd de 04 7d be
       -0.30818695 0.2462574 -0.052246332 -0.24708888
000160 44 07 d3 bd 17 bd 4a be c0 b0 7c 3c 90 f5 97 3d
       -0.1030412 -0.19798695 0.015423 0.07419884
000170 83 52 90 3e 14 72 fc 3d 20 a6 94 bc f4 e5 97 3d
       0.2818795 0.12326446 -0.01814562 0.07416907
000180 3d 6a a3 3e 04 c0 95 be 81 87 b1 be 0d 86 aa 3e
       0.3191699 -0.2924806 -0.34673694 0.33305398
000190 b4 cd e9 bd 43 2e 82 be 8c 5b d7 3d 1c 33 d5 bd
       -0.11416188 -0.2542592 0.10515508 -0.10410139
0001a0 40 2f 23 3c 78 73 36 3d f0 15 99 be da 53 73 3e
       0.009959996 0.044543713 -0.2989955 0.23762456
0001b0 c0 29 5f 3d 11 40 87 be 48 a5 48 bd b2 45 0b 3e
       0.054483175 -0.26416066 -0.04898575 0.13600805
0001c0 ce 4f 0d be 84 c4 a9 be 6a 8f 41 3e 96 a3 1e be
       -0.13799974 -0.33157742 0.18902364 -0.1549209
0001d0 48 04 84 be d2 e5 2b 3e 83 55 8f 3e 0b 32 17 be
       -0.25784516 0.16786888 0.27994928 -0.14765184
0001e0 34 9c a1 bd 24 aa f0 bd d8 35 e9 3d ff 44 a4 3e
       -0.078911215 -0.11751202 0.11387223 0.3208389
0001f0 26 52 0b 3e db c4 84 be f8 76 4c 3d c6 c6 41 be
       0.13605556 -0.2593144 0.049918145 -0.18923482
000200 a0 16 37 bd c0 db ee bc 22 bf 52 3e f9 14 8b be
       -0.04469931 -0.02915752 0.20580724 -0.27164438
000210 9e 10 48 be 90 f6 b2 bd 80 01 3b 3c f6 7f 55 3e
       -0.19537589 -0.08738434 0.011413932 0.20849594
000220 c0 72 90 bd c2 5c 53 3e 40 95 af 3c 7d b2 95 3e
       -0.07053137 0.20640853 0.021433473 0.29237738
000230 76 53 09 3e 22 66 3e be 89 30 a6 3e c0 18 89 bb
       0.13410744 -0.18593648 0.32458904 -0.0041838586
000240 de be 13 be 97 a1 96 be c2 24 72 be 29 bc bd be
       -0.14428279 -0.29420158 -0.23646834 -0.37057617
000250 c0 d4 64 3c e7 ce a4 be 86 77 2d 3e f7 7a 14 be
       0.013966739 -0.32189104 0.16940126 -0.14500032
000260 b0 c9 e7 3d cb b2 be be 42 88 9a be 0f 76 b3 be
       0.11317766 -0.37245783 -0.3018208 -0.3505101
000270 b4 78 cd 3d cd 25 a9 3e 94 f8 f2 3d 4b 03 1d be
       0.10032788 0.33036652 0.11863819 -0.15333287
000280 40 d5 a9 3b 78 0e c2 bd 95 1b 87 3e 8a da ae be
       0.005182892 -0.09475416 0.2638823 -0.34151107
000290 d2 72 88 be cf cc 50 be 42 cc a5 be c3 2c 87 3e
       -0.266501 -0.20390628 -0.323824 0.26401338
0002a0 cd e6 9b 3e fc 27 79 be 58 15 8e 3d 81 f0 a0 3e
       0.30449525 -0.24331659 0.06937665 0.3143349
0002b0 56 46 5e 3e 0d a0 ae 3e 56 5d 61 3e 9e fe 3f 3e
       0.21706519 0.34106484 0.22008261 0.18749472
0002c0 f1 41 92 3e c0 2b fd 3b 4c 98 70 be ff 34 88 3e
       0.28565934 0.0077261627 -0.23495597 0.26602933
0002d0 2f 42 80 3e 3d b9 80 3e 60 95 dd 3d 2c c3 81 be
       0.25050494 0.25141326 0.10819507 -0.25344217
0002e0 e1 d7 b4 3e c0 29 d2 bc 31 aa 7c be 18 a6 4a bd
       0.35320953 -0.025654674 -0.24674298 -0.049474806
0002f0 20 88 26 bd d1 c4 bc be 70 ac 8c bc 1d 65 0f be
       -0.040657163 -0.3686891 -0.017172068 -0.14003415
000300 ee 58 43 3e b3 72 4d be c5 58 16 be 70 79 cb 3d
       0.19076893 -0.20063286 -0.146823 0.09935272
000310 58 59 45 bd 20 04 f3 bd 39 a6 46 be 00 46 77 3c
       -0.048180908 -0.11866021 -0.19399346 0.015092373
000320 00 ee 75 3d 80 b0 e0 3b da 37 60 3e d7 57 a8 3e
       0.060041428 0.006856978 0.21896306 0.32879516
000330 60 59 f2 bd f0 40 3e bd d5 dd 92 3e ee 9e 33 3e
       -0.11833453 -0.046448648 0.2868487 0.17541096
000340 31 5a 9b 3e cd 10 b4 3e 7e 8f 67 3e 98 e7 ef 3d
       0.30342248 0.35169068 0.22613332 0.11714095
000350 3a 2a 0a 3e 4a ed 48 3e ea 09 6d 3e b2 97 4c 3e
       0.1349267 0.19621769 0.23148313 0.19979742
000360 a2 94 92 be 80 c2 a0 3d 30 7f 60 be 6f 66 99 3e
       -0.28629023 0.07849598 -0.21923518 0.29960963
000370 f4 ea 68 be 01 87 94 3e 1b dd b2 3e de 5e 7d 3e
       -0.22745878 0.2900925 0.34934315 0.2474322
000380 51 71 30 be f7 5a 85 3e a0 47 c5 3c c0 1d 3e 3c
       -0.17230727 0.26045963 0.024082005 0.011603773
000390 b0 19 dd 3c 08 dc 74 3d f0 f6 1f 3d cc c4 f2 3d
       0.026989788 0.05978015 0.039053857 0.11853942
0003a0 18 27 4f 3d 6b 38 0b be a8 3f 01 3d 3e 48 0d 3e
       0.050574392 -0.1359574 0.031554848 0.1379709
0003b0 51 89 87 be 00 05 ed 3a e0 ba 88 be 28 2c 11 bd
       -0.26471952 0.0018083155 -0.26705074 -0.0354425
0003c0 70 e4 7c bd 80 3c 21 bb f9 99 95 3e 96 be 12 3e
       -0.061741292 -0.0024602711 0.29219034 0.14330515
0003d0 e6 6e 64 3e 38 b5 8f 3d 10 13 f6 3c f4 67 87 bd
       0.2230793 0.070169866 0.030038387 -0.06611624
0003e0 30 43 96 3d 89 05 8c be 90 99 61 be d1 9b 64 be
       0.07337034 -0.27347973 -0.22031236 -0.22325064
0003f0 f0 75 b2 3d 4e 08 27 3e 30 db 28 bd ba 5a 5f 3e
       0.08713901 0.16311762 -0.04122466 0.21811953

bias f4 [64]
000000 d6 e5 8e be 1d 43 87 3e da 54 6b 3e 5a d5 74 3e
       -0.27909726 0.2641839 0.22981587 0.23909512
000010 ef 61 b7 be 5d 54 96 3e 1e e0 52 3e 90 0c 59 bd
       -0.35816905 0.2936124 0.20593306 -0.052990496
000020 92 7d 23 3e 90 24 84 bc 4e ed 4b 3e da 1d 00 3e
       0.1596587 -0.016130716 0.19914743 0.12511387
000030 13 c7 90 3e d9 de 89 be fc dc d0 3d 00 fc 79 3d
       0.28276882 -0.26927832 0.101983994 0.06103134
000040 0f c7 89 3e 95 f8 8b 3e 7f 6f 04 be e0 bc 39 bc
       0.26909682 0.2733809 -0.12933157 -0.011336535
000050 11 3c af 3e a8 bc d3 bd a0 2a 38 be 16 56 04 3e
       0.34225515 -0.10338718 -0.1798501 0.12923464
000060 83 86 bc 3e 50 df ed bd 46 90 79 3e f8 d5 d7 bd
       0.36821374 -0.11614859 0.24371442 -0.10538858
000070 20 a0 3e bd 46 1d 2e 3e 96 d1 79 3e 67 02 b6 be
       -0.046539426 0.17003354 0.24396357 -0.35548708
000080 90 2a 69 bd c8 52 ad 3d 1d 63 a3 be ee 53 0d be
       -0.056925356 0.08463055 -0.31911555 -0.13801548
000090 c9 a8 64 be 10 10 9c be 23 b5 8e be 00 dd 9a be
       -0.22330011 -0.30481005 -0.2787257 -0.30246735
0000a0 c0 47 cf bc b6 ab 92 be 34 8e b1 bd 30 3b 73 be
       -0.025302768 -0.2864663 -0.08669701 -0.23753047
0000b0 c0 59 6d 3c 12 15 1e 3e c8 dd 29 be b4 12 b4 be
       0.01448673 0.15437725 -0.16588509 -0.3517052
0000c0 1f 27 8b be 59 6d a3 be 7d c7 8c 3e 0e 3c 2a 3e
       -0.27178285 -0.31919363 0.27495947 0.16624472
0000d0 00 71 81 3b fc da ff 3d 74 8d 29 be 9c 3d 6b be
       0.003950238 0.1249294 -0.16557866 -0.22972721
0000e0 1d e1 8e 3e 71 16 a3 3e 96 2c 2a be c0 6a 4a 3c
       0.27906123 0.3185306 -0.1661857 0.012354553
0000f0 ac 54 8b bd 1d ad bc 3e a3 e3 17 be 12 bf 1e 3e
       -0.06803259 0.36850825 -0.1483293 0.15502575

weight f4 [64, 64]
000000 c8 45 0d 3d 8a a5 be 3d 3a 15 b6 bd 2c 97 95 bd
       0.034490377 0.09308918 -0.088907674 -0.07304224
000010 d4 eb 56 3d 90 f7 7f bd a0 b8 d1 3c 0c 62 b2 bd
       0.052470997 -0.062491953 0.025600731 -0.08710107
000020 a4 1e 8a 3d e0 72 c2 3b fc bf 15 bd 10 f7 5a 3d
       0.067441255 0.0059341043 -0.036560044 0.053458273
000030 ae 55 cf 3d 00 aa b9 ba 1e 42 ea 3d 28 32 c6 bd
       0.10123764 -0.0014165044 0.11438392 -0.09677535
000040 58 8c 2d 3d 60 e4 21 bd f8 e6 9c bd c2 2e f1 3d
       0.04237017 -0.039524436 -0.07661241 0.117764965
000050 6c e3 48 3d ec 9a f8 3d 84 ce d0 bd ec 67 1c 3d
       0.04904501 0.12138924 -0.1019564 0.038185045
000060 08 32 ea 3d 62 ea c7 3d 88 42 74 bd 58 16 e2 3c
       0.11435324 0.09761502 -0.05963376 0.027598545
000070 22 de e7 3d 88 58 bd bd 80 d4 bf 3b 20 94 4e 3c
       0.11321665 -0.092454016 0.0058541894 0.012608558
000080 c0 5b 19 bc 86 da fb bd 94 5c 65 3d b0 d0 e1 3d
       -0.009360254 -0.122975394 0.055996493 0.11026132
000090 94 50 e0 bd c8 4c 13 bd 08 85 66 3d 50 9d 56 bc
       -0.10952869 -0.035961896 0.056279212 -0.01309903
0000a0 56 41 94 bd a0 37 de bb 1e 0b a0 bd 52 96 dd bd
       -0.07239024 -0.0067815334 -0.078146204 -0.10819687
0000b0 d0 7f 24 bc 48 b5 bb bd 6c 5d cc 3d f8 af 4e 3d
       -0.0100402385 -0.09165436 0.09978756 0.050460786
0000c0 10 88 f9 3c e8 49 85 bd 90 b2 c8 bc 58 b7 ec bc
       0.030460387 -0.06508237 -0.024499208 -0.028896019
0000d0 86 94 be 3d 14 6b 16 bd 6c 3f 26 3d d8 41 24 3d
       0.09305672 -0.03672321 0.040587828 0.040101856
0000e0 d8 2a 2f bd 90 ed f2 bc 16 04 e8 bd ae 01 ea 3d
       -0.04276547 -0.029654294 -0.11328904 0.114261016
0000f0 20 6d f3 3d 36 b1 f3 3d b4 2b 7f bd 24 93 29 bd
       0.11886048 0.11899035 -0.062297538 -0.04140009
000100 7e 14 9a bd d0 83 61 3d 64 00 4d 3d 40 9a b1 bb
       -0.0752344 0.055057347 0.0500492 -0.0054199994
000110 c0 fe ba bb 44 95 6c 3d c6 4f d7 3d e8 67 db bd
       -0.005706638 0.05775954 0.105132625 -0.10713178
000120 44 cb bc 3d d8 7e 92 bc 5a 9e af bd 86 19 a0 3d
       0.09218457 -0.01788275 -0.08575125 0.07817368
000130 30 ed 25 bd 94 dc 67 3d dc f3 87 3d 78 4b c8 bc
       -0.040509403 0.056606844 0.06638309 -0.024450049
000140 e8 0f d2 bc 9a f4 83 bd 34 9b a6 bd b8 73 e6 bd
       -0.02564235 -0.064431384 -0.081350714 -0.1125254
000150 26 26 b5 bd 2c 9b 39 3d 92 5e 99 bd 92 ae b5 bd
       -0.08845167 0.045314 -0.07488741 -0.08871187
000160 70 b8 ae bc 5e 99 e9 bd 70 8a a9 bc 00 ec c3 bb
       -0.021328181 -0.114062056 -0.020695895 -0.005979061
000170 04 d3 5b bd c0 3a 84 bc e4 aa 50 bd da bd 8d 3d
       -0.053668037 -0.016141295 -0.050944224 0.06920977
000180 fc 14 5a 3d c0 8f c0 bd c8 00 f1 3c 40 13 69 bb
       0.05324267 -0.09402418 0.029419318 -0.0035564452
000190 38 5d 93 3c 18 55 9e 3d 86 2a 98 bd c0 24 19 3d
       0.017988786 0.07731074 -0.07429986 0.037388563
0001a0 b4 95 56 3d 0e 54 de 3d 84 ed 78 bd d0 5a b5 3d
       0.05238886 0.10855876 -0.060773388 0.08855212
0001b0 78 e2 90 3c 9c 82 88 3d b0 a7 20 bd 60 5a a1 bc
       0.017686114 0.06665537 -0.03922242 -0.019696414
0001c0 22 a3 8c 3d f4 b3 2e 3d 80 af af 3c c8 d7 c6 bc
       0.068670526 0.042652085 0.02144599 -0.024272814
0001d0 f6 03 8a 3d 42 c7 9b bd 6a 51 90 bd 36 59 b7 3d
       0.06739037 -0.07606365 -0.070467785 0.089525625
0001e0 a0 25 61 3c 40 8d c7 3d f8 74 92 3c 84 5f 45 3d
       0.013741881 0.09743738 0.01787804 0.048186794
0001f0 52 d0 dc bd 5c 15 18 3d 14 50 34 3d 0e 20 ae bd
       -0.107819214 0.037129745 0.04402168 -0.08502208
000200 36 03 d5 bd 64 41 3f 3d 60 4e a8 3b ae a7 c3 bd
       -0.10401003 0.04669322 0.005136296 -0.09553467
000210 42 30 92 bd 7e 02 fc bd e0 4e be 3d 5a 29 9b bd
       -0.07138111 -0.12305163 0.09292388 -0.075762466
000220 30 b4 27 3d 0c 99 45 3d 80 e1 d6 3b 12 60 f1 bd
       0.040943325 0.04824166 0.0065576434 -0.11785902
000230 e0 69 e4 3d c0 d6 62 3b fc de 04 bd c4 de c0 3d
       0.111530066 0.0034612864 -0.032439217 0.09417489
000240 d0 78 e0 bd 10 bc 4b bd f0 c4 91 3c 16 89 86 3d
       -0.10960543 -0.049739897 0.017794102 0.06569116
000250 58 06 05 bd 38 dd d5 3c 38 ad 1d 3d b8 94 e3 bd
       -0.032476753 0.026106462 0.038495272 -0.1111235
000260 a6 65 f4 bd 40 35 46 bc 24 87 22 bd 4c d8 82 3d
       -0.119334504 -0.012097657 -0.03967966 0.063889116
000270 e0 dc f1 3d aa 5c c7 bd 9a c1 8f 3d 24 2d 36 3d
       0.11809707 -0.09734471 0.070193484 0.044476643
000280 a8 bc a0 bc 6e fa 82 3d 96 19 ca 3d a0 82 e3 3d
       -0.019621208 0.06395422 0.098681614 0.11108899
000290 8c fd a1 3d 2e 03 d0 bd 22 c1 8f 3d c2 ca e9 3d
       0.07909688 -0.101568565 0.07019259 0.11415626
0002a0 16 af c2 3d e0 93 07 3d b8 00 af 3c 2e 9c c0 bd
       0.09506051 0.03310001 0.021362647 -0.09404789
0002b0 08 62 ab 3d fc 2c 2f 3d 40 5b f8 bb ea 69 d4 3d
       0.08368307 0.04276751 -0.007579237 0.10371764
0002c0 cc d0 05 3d 38 a0 f7 3c 44 d8 ac bd ce 16 c1 3d
       0.032669827 0.030227765 -0.08439687 0.09428178
0002d0 5c 3c ca bd fa 14 a8 bd e8 cb 34 bd 24 1a f0 bd
       -0.09874794 -0.08207126 -0.044139773 -0.11723736
0002e0 2c de dc bd 88 1a ed bc ae a3 a1 3d 80 39 63 bd
       -0.107845634 -0.028943315 0.078925475 -0.05547476
0002f0 52 11 da bd f2 28 ea bd 10 60 db 3d 5c 32 bb bd
       -0.10647835 -0.11433591 0.10711682 -0.09140465
000300 58 d7 c9 3d 3c 38 6b bd ee b9 d9 bd 28 72 1c 3d
       0.09855527 -0.057426676 -0.106311664 0.038194805
000310 d0 9d 34 3c f0 5e 7d bc 80 cb 73 bc e0 e0 8e bd
       0.011023954 -0.015464529 -0.014880061 -0.06976485
000320 9e c2 b5 3d 2e 10 dc 3d fc 68 89 3d de d3 dc bd
       0.08875011 0.107452735 0.06709477 -0.10782598
000330 8c 15 e4 bd 70 cf 87 3c 04 09 a4 bd 10 5d 1b 3d
       -0.11136922 0.016578406 -0.08009532 0.03793055
000340 ec 38 a8 3d 60 ae 10 3d 1e 01 88 3d 00 40 84 b9
       0.08213982 0.035322547 0.06640838 -0.00025224686
000350 00 c7 4a bd 90 d8 7d bc 30 2f f7 3d 48 f1 49 3d
       -0.049506187 -0.015493527 0.12069547 0.04930237
000360 5a 23 bf 3d 6c 61 f3 3d f2 96 cd 3d 28 77 ba bd
       0.09332915 0.11883816 0.10038556 -0.091047585
000370 bc c4 09 bd 9c 4d a7 3d 08 26 e9 bc 08 6a bd bd
       -0.033634886 0.081691 -0.028460518 -0.092487395
000380 8e de fe 3d 42 bf 9d 3d a0 a5 d4 3b 96 9b d0 3d
       0.12444793 0.07702495 0.0064894706 0.10185926
000390 b8 fe 86 bd 68 d0 c5 3d 98 36 92 bd a8 3c 79 bd
       -0.065915525 0.09658891 -0.07139319 -0.060848862
0003a0 b0 ef af bc 60 86 c2 bc de ea 8e 3d 6e 02 a3 3d
       -0.021476597 -0.023745716 0.06978391 0.07959448
0003b0 e8 5b ca 3d c0 bc e6 3c e8 6a c8 bd 74 16 d1 3d
       0.09880811 0.028166175 -0.09786016 0.10209361
0003c0 ae 44 f1 3d 80 ab f1 3c 72 79 ab 3d 40 2d ef 3b
       0.11780678 0.029500723 0.08372773 0.0072990954
0003d0 76 a3 9a 3d d6 b5 f0 bd 24 c0 61 bd b8 81 9e bd
       0.07550709 -0.117534325 -0.05511488 -0.07739586
0003e0 80 e3 57 bc d0 70 76 3d d4 4b 33 bd 7e f0 86 3d
       -0.013176799 0.06016618 -0.043773487 0.06588839
0003f0 b6 3e e7 bd cc 25 a7 3d 30 98 50 3c 7e ff 9f 3d
       -0.11291258 0.08161506 0.012731597 0.07812403

bias f4 [64]
000000 3c 7b 7d 3d 58 bd 0d 3d 56 ce b8 3d 36 9c c7 bd
       0.061885104 0.0346044 0.090237305 -0.09746592
000010 b0 e0 85 bc ae a1 c7 bd 38 9b 16 bd a8 ed de 3c
       -0.01634249 -0.09747635 -0.036769122 0.027212933
000020 ba f6 91 3d 28 ee f9 3d b8 c2 b2 bd b2 27 ae 3d
       0.071271375 0.12203628 -0.08728546 0.08503665
000030 7c 49 77 3d 14 91 08 bd ac 7c c9 3d 0c 21 8b 3d
       0.060372815 -0.033341482 0.098382324 0.067934126
000040 54 15 0d 3d 7c 2b c0 bd 5c ff e8 3d 4e 40 a8 bd
       0.03444417 -0.09383294 0.11376831 -0.0821539
000050 9e 28 b1 bd 18 57 20 bd a4 75 17 bd 14 12 79 3d
       -0.08650325 -0.03914556 -0.036977425 0.060808256
000060 78 d4 bb 3c 10 9f 84 bc 4c 1c c2 bd 80 d2 6f bd
       0.022928461 -0.016189128 -0.094780535 -0.058550358
000070 2e 2c b0 bd 58 a3 c6 3c e0 ca 8a bd d8 ed c5 bc
       -0.086021766 0.02424781 -0.067769766 -0.024161264
000080 ca 55 cc 3d a0 fe 15 bd 60 6a fe 3c 0c ca 6f 3d
       0.099773005 -0.036619782 0.031056583 0.058542296
000090 c4 96 26 bd d6 cb b9 bd 60 96 0e 3c 28 2a 9a 3c
       -0.040671125 -0.09072082 0.008702844 0.01881893
0000a0 68 89 53 3d 00 ff a4 3c b8 d7 07 bd 00 88 38 3b
       0.051644713 0.020141125 -0.03316471 0.0028157234
0000b0 68 c4 81 3c a8 1e 30 3d a0 cb 8a bb f8 5b 8e 3c
       0.015840724 0.042997986 -0.0042357 0.017377838
0000c0 f0 b9 80 bd e6 32 c2 3d 00 66 f4 b9 40 8a 4c 3d
       -0.06285465 0.09482364 -0.00046615303 0.049936533
0000d0 40 e8 b9 bc 80 22 be 3c 02 f4 be 3d 44 60 59 3d
       -0.022693753 0.02320981 0.093238845 0.05307032
0000e0 5c 53 9b 3d f2 b6 bb 3d 14 41 fa 3d a8 8b 38 bd
       0.07584259 0.091657534 0.12219444 -0.04505506
0000f0 8c 5f 64 3d 20 59 da bd 7e 46 ac bd d0 da 27 bd
       0.055755183 -0.106615305 -0.08411883 -0.04098016

weight f4 [1, 64]
000000 aa 00 ad 3d 5c cd 8a 3d dc 9f 90 3d a2 8c a3 bd
       0.08447392 0.067774504 0.07061741 -0.07985808
000010 8a b5 e5 3d d0 b0 dc 3c a0 a0 10 3d 98 34 d7 3d
       0.112162665 0.02693978 0.035309434 0.10508078
000020 ca 73 d5 bd 70 e9 13 bd 1c 73 e2 3d 20 b1 55 3d
       -0.10422476 -0.036111295 0.110571116 0.052170873
000030 d0 f7 79 3c 78 33 2f bd 9a b0 a3 3d 60 33 e5 3c
       0.015256837 -0.042773694 0.079926684 0.0279786
000040 00 cd 44 3d b2 dd 9f bd 30 fe 0d bc e0 b8 ce bb
       0.048047066 -0.07805957 -0.00866656 -0.00630866
000050 2a 94 af 3d 9c 90 a6 bd 80 87 17 3b 14 44 7b bd
       0.08573182 -0.08133051 0.0023121536 -0.06134422
000060 70 cc 07 3c 58 1c be bc a0 da dc bc 10 ba 18 bc
       0.008288488 -0.023206875 -0.026959717 -0.0093217045
000070 c2 1c 9a bd 6c 10 98 3d 00 8a 46 3a 10 cf 23 bc
       -0.07525016 0.07425007 0.0007573664 -0.009998098
000080 24 27 65 3d 7a e4 8c 3d c0 da ea bb 32 b0 c2 3d
       0.05594553 0.06879516 -0.0071671903 0.09506263
000090 f8 e7 5f bd e0 1d db bc a2 1e 82 3d bc 1b c9 bd
       -0.054664582 -0.026747644 0.06353499 -0.09819743
0000a0 44 a0 75 3d 00 ea fe bb e8 5f 92 bd d0 d9 28 3c
       0.059967294 -0.00777936 -0.07147199 0.010305837
0000b0 5c 33 73 bd 48 4c 2e bd 60 ef 70 bd 4c ed 9b bd
       -0.059375152 -0.042553216 -0.058822036 -0.0761362
0000c0 e6 7f c8 3d 6a 79 f5 bd 90 ec 35 bd 1c be 76 3d
       0.0979002 -0.119860485 -0.044415057 0.060239896
0000d0 a0 26 76 bc 48 6c d7 bc 58 6c 8c bc 64 bc 54 3d
       -0.015023857 -0.02629675 -0.017141506 0.051937476
0000e0 96 78 d3 bd b2 11 f6 3d 04 cb 2a 3d 60 5f fc 3c
       -0.10325734 0.12015094 0.041697517 0.030807197
0000f0 3c ce 9b bd 02 92 fd bd c8 98 ee bd 62 95 ca bd
       -0.076076955 -0.123813644 -0.116502345 -0.09891774

weight f4 [2, 64]
000000 3e f4 9d bd 00 70 75 3d 90 ca fd bd 1c b9 fe 3d
       -0.07712601 0.059921265 -0.12392151 0.124376506
000010 be eb c1 3d 9c e0 32 bd 7c 70 46 bd 7c 5d 99 bd
       0.094687924 -0.043671235 -0.048447117 -0.07488534
000020 4a 04 ee bd b0 29 09 bd 46 39 94 bd 78 d3 04 bd
       -0.11621912 -0.033487022 -0.072374865 -0.032428235
000030 74 db 1a 3d 20 90 90 3d 6e 36 f5 3d ce 2d bf bd
       0.037806943 0.0705874 0.11973272 -0.093349084
000040 c0 d7 f1 3d 0c 00 f0 bd 70 a1 14 3c 18 91 a8 bc
       0.11808729 -0.11718759 0.009071693 -0.020576999
000050 00 dd a4 3d 90 c5 53 bc c0 12 88 bb f4 df 0a bd
       0.08049965 -0.012925521 -0.004152626 -0.033904985
000060 5a 34 d3 3d 6a e0 9b bd 40 41 e5 3b 4e 47 84 3d
       0.1031272 -0.07611163 0.006996304 0.06458913
000070 4c a9 5f bd f0 b9 b2 bd 38 7e 8a bd 9e 63 fb 3d
       -0.054604813 -0.08726871 -0.067623556 0.1227486
000080 e8 84 ce 3d b4 a3 05 3d 30 36 f1 3c 34 db d4 bd
       0.100839436 0.032626823 0.029444784 -0.10393372
000090 50 3d fb 3c 7c 48 ac bd 6c 33 e3 3d 00 e0 31 bd
       0.030668885 -0.08412263 0.11093792 -0.043426514
0000a0 00 de 99 3d c4 f4 92 bd 68 1e ff bc f0 a9 b1 bc
       0.07513046 -0.071755916 -0.031142429 -0.021687478
0000b0 78 f0 92 bc 48 27 a1 bc 0c a1 4f 3d 3c eb 28 3d
       -0.01793693 -0.019672051 0.050690696 0.041239962
0000c0 d8 c4 ee bc 56 40 c7 bd 32 f4 fe 3d de 9c a9 3d
       -0.029146597 -0.09729068 0.1244892 0.08281873
0000d0 00 d4 bf 3c b8 ea e0 3d f4 52 4a bd e0 f8 64 bd
       0.02341652 0.10982269 -0.049395517 -0.05590141
0000e0 26 ca 9a bd 0e 04 82 bd 76 85 f8 3d 98 c4 00 bd
       -0.07558088 -0.063484296 0.12134831 -0.031437486
0000f0 2e 3b e0 bd e4 11 3c 3d 34 f3 49 bd c8 31 ab bc
       -0.10948788 0.0459155 -0.049304202 -0.020897761
000100 50 ea ab bd 36 e9 90 3d 48 96 8e bc 24 d5 74 bd
       -0.08394301 0.070757315 -0.017405644 -0.05977358
000110 70 08 1a bc b0 0e b0 3d 1e 65 ce 3d 1a 8d bd bd
       -0.009401426 0.085965514 0.1007788 -0.092554286
000120 e4 8e 5a bd 22 ea 8f 3d 58 9f 8c 3d 28 0b 79 3d
       -0.053358927 0.07027079 0.0686633 0.060801655
000130 20 93 cf bb 60 f6 99 3c 18 53 52 3d 70 52 97 3c
       -0.0063346773 0.018794239 0.051348776 0.018471926
000140 2c ac a6 bd f4 18 4d bd 38 5d 3d 3d b8 0d c9 3d
       -0.08138308 -0.050072625 0.04623148 0.0981707
000150 12 a8 b6 bd d4 93 0b bd a0 bb 8f 3c 98 7b a7 bc
       -0.089187756 -0.034076527 0.017545521 -0.020444676
000160 08 3f 0c bd 40 04 a9 3d 8c 5b 6b bd 5e 0f ff bd
       -0.0342398 0.08252764 -0.057460353 -0.12454103
000170 18 3c a1 3c 30 ed 4b bd c0 ec 3c 3c 46 01 cb bd
       0.019681975 -0.049786747 0.011531055 -0.09912352
000180 58 67 75 bd 20 ef e9 bb 4c 05 6e bd a8 c4 63 bd
       -0.05991301 -0.0071391016 -0.05811052 -0.055607468
000190 60 8a 48 3c 94 55 b4 3d 76 eb b1 bd 60 c4 42 3d
       0.012240022 0.08805385 -0.08687489 0.04755056
0001a0 b8 3a b5 bc a4 ff e9 bd 78 af fc bd 62 cf 8f 3d
       -0.022122726 -0.11425713 -0.123381555 0.07021977
0001b0 20 8f 9e 3c e2 2f 8f bd 5c 00 e8 bd 98 9e f9 3c
       0.019355357 -0.06991555 -0.113281935 0.030471131
0001c0 30 8d 74 3d 50 a2 72 3c c2 29 9e 3d a8 ef be bc
       0.05970496 0.014809206 0.077228084 -0.023307636
0001d0 94 7c b8 bd ec 91 b5 3d e0 2b ca 3c d8 74 a6 bc
       -0.090081364 0.08865723 0.024679124 -0.020319387
0001e0 b0 72 55 3d 86 2e fa 3d 54 06 55 bd 90 6e 4d 3d
       0.052111328 0.12215905 -0.052007988 0.05015427
0001f0 ea b8 ef 3d ec 80 2b bd 30 2b ec bc 44 5b f7 3d
       0.117051914 -0.041870996 -0.028829187 0.120779544

bias f4 [2]
000000 94 72 f4 bd 68 fc da 3c
       -0.119359165 0.026731685
